Final Script Code/Analysis Jupyter Notebooks/7. pyrolysis_model_NN.pth (torch, 46488 bytes, 6 tensors)

layer1.weight f4 [128, 15]
-0.10554471 -0.14717771 0.5429257 -0.24132267 -0.14074358 -0.31078243 0.11492451 -0.30904987
0.22293128 0.026191412 -0.028141914 -0.28839037 -0.053079914 -0.31433162 -0.09154795 0.20028172
-0.22661164 -0.1336847 0.14935397 -0.03804864 0.25489798 0.034852263 -0.17658938 -0.2070138
-0.23575372 0.20127589 -0.05317219 -0.23773605 -0.23837565 -0.23525932 0.09604315 -0.0022900081
-0.023234654 0.027310507 0.052536618 0.07929881 -0.18417121 0.49787462 -0.20183161 0.22540624
0.11111065 -0.15861544 0.09273777 0.5604857 0.14956528 0.1465617 0.31042594 -0.507102
0.22622535 0.079851955 0.2155258 0.20430638 -0.08434272 0.18836138 0.21051203 0.20551968
0.20893602 0.28718284 0.3935531 0.16664292 0.076134294 -0.1514874 -0.15669487 0.31316003
0.38878304 0.2587438 0.039007176 -0.34351227 -0.1787056 0.19778678 -0.01197276 0.048296146
-0.042758852 0.08684997 -0.030258734 -0.15413494 -0.063935235 -0.042678095 -0.10232495 0.15215981
-0.10368107 -0.011398741 -0.22384132 -0.09155596 -0.15960869 -0.104673654 -0.11590255 0.103477
0.098584354 -0.05755716 0.07590855 -0.21744944 0.18608236 0.16019788 0.0007033064 0.20920244
-0.1217588 0.33228952 0.1595528 0.2175881 0.01673767 -0.1786488 -0.16601448 -0.3329846
-0.040341794 0.21601512 0.014407609 0.5592558 -0.2987223 0.17509514 0.2312757 0.26790962
0.3268261 -0.18395603 0.20355077 0.09265127 -0.19116727 -0.09544596 -0.44141394 0.020774715
-0.3623313 -0.37827542 0.287473 -0.03952071 0.07311957 -0.0055474397 -0.12263514 0.16506194
0.11902185 0.06449517 -0.16992739 0.05287138 -0.18048231 -0.052331608 -0.31297642 -0.08396756
0.021445941 0.4155068 0.23492508 -0.5329307 0.31412387 -0.059826065 -0.063331805 0.19138345
-0.12256098 0.14643903 -0.29587424 0.1319001 -0.034900382 0.06943403 0.11812033 0.0003621631
-0.40241542 0.4498087 0.07199234 0.2177555 0.05763555 -0.3534958 0.068728834 -0.041607905
0.34869537 0.12926383 -0.17406808 0.2380264 -0.3095969 0.077835135 -0.23288831 -0.01907597
0.1416704 -0.08655715 0.071257204 -0.25748017 0.11936733 -0.1275685 -0.016540706 -0.22608374
0.18416747 0.07066042 0.10525234 0.22652978 -0.1455873 -0.06216916 0.5296879 -0.19679357
0.05163575 0.04158839 0.2245359 -0.47532427 0.15559462 -0.0038901703 -0.13905144 0.0073624128
-0.27274892 -0.45776835 -0.31497175 0.1270922 0.21198022 -0.071817204 -0.23983757 -0.40553102
0.10648916 -0.25517064 0.27772987 -0.11949879 0.23309602 -0.13700704 -0.2364377 0.13301289
0.23078421 0.1415431 -0.16919877 -0.15808162 -0.109201424 0.056463536 0.5110507 -0.049169194
-0.062478933 -0.038801372 0.26187867 -0.1449986 0.052635126 0.3374568 0.006059268 0.09505829
0.1510171 -0.15281896 -0.09427454 -0.14887285 -0.12917393 -0.11101412 0.031349808 -0.23243812
0.2579335 -0.16903186 -0.0012279255 -0.13168322 0.17063497 0.109506406 -0.061338168 -0.073050186
-0.18513568 -0.10139992 0.22338352 -0.22146685 -0.3989088 -0.26848605 -0.108418226 0.18364291
0.23983626 -0.14540114 0.29763818 0.16903678 -0.08927195 -0.06890368 0.21397029 -0.07754561
00000000: d327 d8bd c1b5 16be 2efd 0a3f 4a1d 77be
00000010: 161f 10be e01e 9fbe 8b5d eb3d c93b 9ebe
00000020: 1948 643e 5f8f d63c df89 e6bc e7a7 93be
00000030: 536a 59bd 13f0 a0be 7e7d bbbd a716 4d3e
00000040: e20c 68be a4e4 08be 3ff0 183e e4d8 1bbd
00000050: fd81 823e 3fc1 0e3d d9d3 34be 6dfb 53be
00000060: 6c69 71be 441b 4e3e 15cb 59bd 1471 73be
00000070: bf18 74be d2e7 70be 45b2 c43d f613 16bb
00000080: 9a56 bebc 49ba df3c a330 573d 6a67 a23d
00000090: 6197 3cbe 6ce9 fe3e f2ac 4ebe e5d0 663e
000000a0: fb8d e33d 166c 22be 4ded bd3d fe7b 0f3f
000000b0: a427 193e 4514 163e 26f0 9e3e 70d1 01bf
000000c0: 9ea7 673e 6c89 a33d ccb2 5c3e b135 513e
000000d0: e0bb acbd cee1 403e 7790 573e c073 523e
000000e0: 53f3 553e a109 933e cb7f c93e 71a4 2a3e
000000f0: 4cec 9b3d 831f 1bbe 9f74 20be 8356 a03e
00000100: 920e c73e 117a 843e fdc5 1f3d d7e0 afbe
00000110: 9afe 36be 9e88 4a3e 6529 44bc 2ed2 453d
00000120: e823 2fbd 66de b13d 2ae1 f7bc 8dd5 1dbe
00000130: 7af0 82bd 3acf 2ebd be8f d1bd c8cf 1b3e
00000140: be56 d4bd c9c1 3abc a936 65be b181 bbbd
00000150: 7670 23be 245f d6bd 515e edbd c0eb d33d
00000160: 98e6 c93d 0ec1 6bbd f175 9b3d 11ab 5ebe
00000170: 608c 3e3e ea0a 243e 185e 383a 2a39 563e
00000180: ae5c f9bd da21 aa3e cf61 233e 6acf 5e3e
00000190: 701d 893c b6ef 36be b3ff 29be f57c aabe
000001a0: 703d 25bd 1133 5d3e e40d 6c3c 632b 0f3f
000001b0: 21f2 98be 244c 333e 89d3 6c3e 732b 893e
000001c0: c055 a73e f85e 3cbe 9d6f 503e f3bf bd3d
000001d0: 5ac1 43be 2c79 c3bd 0201 e2be bc2f aa3c
000001e0: 7d83 b9be 51ad c1be a92f 933e 78e0 21bd
000001f0: b7bf 953d 4cc7 b5bb 2228 fbbd ff05 293e
00000200: bac1 f33d 0b16 843d 7201 2ebe a98f 583d
00000210: 5bd0 38be ab59 56bd 723e a0be 2ff7 abbd
00000220: 66af af3c 4fbd d43e 3390 703e 256e 08bf
00000230: d8d4 a03e 2d0c 75bd 1bb4 81bd 06fa 433e
00000240: 4001 fbbd 1df4 153e d47c 97be d210 073e
00000250: b4f3 0ebd 6e33 8e3d 12e9 f13d b5e0 bd39
00000260: 6509 cebe 534d e63e b870 933d 4cfb 5e3e
00000270: 4113 6c3d 67fd b4be b4c1 8c3d 0d6d 2abd
00000280: 3388 b23e bd5d 043e e73e 32be 31bd 733e
00000290: 7c83 9ebe 0768 9f3d 467a 6ebe 3545 9cbc
000002a0: 0c12 113e e044 b1bd 4cef 913d 71d4 83be
000002b0: dc76 f43d 51a1 02be 6080 87bc 7f82 67be
000002c0: 6696 3c3e 69b6 903d 8a8e d73d 6cf7 673e
000002d0: d614 15be 17a5 7ebd a099 073f 4184 49be
000002e0: 0280 533d 9658 2a3d bdec 653e b45d f3be
000002f0: 3254 1f3e 3af2 7ebb 8063 0ebe 6540 f13b
00000300: bfa5 8bbe 9d60 eabe fa43 a1be 7524 023e
00000310: 5811 593e e614 93bd fb97 75be c3a1 cfbe
00000320: fd16 da3d baa5 82be 9c32 8e3e c8bb f4bd
00000330: b9b0 6e3e 934b 0cbe b91c 72be 8834 083e
00000340: b252 6c3e adf0 103e 7142 2dbe 26e0 21be
00000350: ffa4 dfbd 4f46 673d 38d4 023f a365 49bd
00000360: e9e9 7fbd 30ee 1ebd f614 863e 837a 14be
00000370: ee97 573d 23c7 ac3e d38c c63b ecad c23d
00000380: 3aa4 1a3e 937c 1cbe 0313 c1bd 2072 18be
00000390: 2c46 04be 5f5b e3bd a868 003d 4204 6ebe
000003a0: dc0f 843e b016 2dbe 58f2 a0ba f7d7 06be
000003b0: efba 2e3e e544 e03d bb3d 7bbd 569b 95bd
000003c0: 3594 3dbe c3aa cfbd a6be 643e 35c8 62be
000003d0: c63d ccbe 0177 89be 600a debd e30c 3c3e
000003e0: a397 753e 09e4 14be 0864 983e fa17 2d3e
000003f0: 36d4 b6bd 5f1d 8dbd 071b 5b3e 3cd0 9ebd

layer1.bias f4 [128]
-0.216871 -0.09009556 -0.13881105 0.18092908 -0.19908996 0.22816892 -0.05456478 -0.09627317
-0.061235383 -0.16799344 0.3337309 0.08983042 -0.12740996 0.048077658 -0.05769889 0.111474864
0.08593455 -0.11996054 -0.045452632 0.29661968 0.12602855 0.07982666 0.1029028 -0.25560632
0.15164311 0.12750225 -0.2749914 0.1608146 -0.1036845 0.21859452 0.17388372 -0.036692962
0.109450676 -0.10657559 0.23691054 0.15406913 0.048286065 0.0019165126 -0.14114763 -0.11603263
-0.21320142 -0.13740785 -0.16169828 0.24310514 0.030972613 -0.14464487 -0.21543197 0.11262478
0.08678577 0.16240068 0.104720935 0.042624798 0.23836021 0.065205455 0.076656826 0.15622237
0.15876521 -0.19156799 -0.12036804 0.08461644 -0.042272307 -0.030357208 0.0062079215 0.10793814
-0.029555649 0.18610364 -0.091655485 -0.14632699 0.11771819 0.040950455 0.14955965 0.08229333
0.043690886 0.1085927 -0.010307302 -0.14212434 0.17938271 0.18563697 0.074529596 0.12306468
-0.0070569986 0.11285889 -0.06379922 0.19094792 -0.10541073 -0.15608616 -0.23670073 -0.21706109
-0.25159267 0.16251583 0.100811854 -0.20229535 -0.015375622 0.10746428 -0.17698666 -0.18958826
-0.2514105 -0.104791015 -0.036569048 -0.06203452 0.1366727 0.21771133 0.1999029 0.060894255
-0.15593125 -0.0805418 -0.10209466 -0.059940368 0.21267174 0.07602606 -0.003510264 0.06536014
0.11224503 0.1628561 0.07638498 -0.14236076 -0.19450693 -0.15688866 0.13259389 -0.014485638
0.025652353 0.18569644 0.108435 -0.094465844 -0.17546292 0.17260982 0.2590351 0.08722244
00000000: 6e13 5ebe 0584 b8bd 7c24 0ebe 7945 393e
00000010: 3dde 4bbe 1da5 693e 527f 5fbd de2a c5bd
00000020: f4d1 7abd 7906 2cbe c7de aa3e 03f9 b73d
00000030: c277 02be 14ed 443d ac55 6cbd ef4c e43d
00000040: 74fe af3d dfad f5bd 8a2c 3abd 89de 973e
00000050: a10d 013e 297c a33d b4be d23d d5de 82be
00000060: 5548 1b3e f38f 023e accb 8cbe 95ac 243e
00000070: 8a58 d4bd 3ed7 5f3e 930e 323e 5c4b 16bd
00000080: ad27 e03d 4e44 dabd ad98 723e 4cc4 1d3e
00000090: 9cc7 453d 7e33 fb3a 0189 10be 84a2 edbd
000000a0: 7951 5abe a5b4 0cbe 3c94 25be 8ef0 783e
000000b0: 47ba fd3c c91d 14be 339a 5cbe d2a7 e63d
000000c0: bdbc b13d 5d4c 263e ee77 d63d 5797 2e3d
000000d0: b314 743e 708a 853d 41fe 9c3d c2f8 1f3e
000000e0: 5993 223e 662a 44be 8583 f6bd 624b ad3d
000000f0: ba25 2dbd aeaf f8bc d26b cb3b ac0e dd3d
00000100: b01e f2bc f491 3e3e dfb5 bbbd bed6 15be
00000110: 3c16 f13d aabb 273d 2a26 193e 6889 a83d
00000120: 37f5 323d d965 de3d f5df 28bc 0b89 11be
00000130: 1ab0 373e 9e17 3e3e f9a2 983d 5609 fc3d
00000140: 653e e7bb 9022 e73d 2aa9 82bd da87 433e
00000150: 95e1 d7bd 0dd5 1fbe ad61 72be 4345 5ebe
00000160: c1d0 80be 8d6a 263e 7276 ce3d 8326 4fbe
00000170: 08ea 7bbc 3c16 dc3d fe3b 35be 6d23 42be
00000180: e1b8 80be ac9c d6bd 6dc9 15bd e917 7ebd
00000190: eef3 0b3e b8ef 5e3e 59b3 4c3e 416c 793d
000001a0: 71ac 1fbe 19f3 a4bd 0117 d1bd 0884 75bd
000001b0: 9fc6 593e 8db3 9b3d 750c 66bb 89db 853d
000001c0: b9e0 e53d c0c3 263e ba6f 9c3d 05c7 11be
000001d0: d32c 47be 6ca7 20be b1c6 073e 2b55 6dbc
000001e0: e224 d23c 3527 3e3e 2b13 de3d 4f77 c1bd
000001f0: 8dac 33be a1c0 303e 40a0 843e aea1 b23d

layer2.weight f4 [64, 128]
-0.056313265 0.0033061567 0.0057057687 -0.06706308 0.022334095 0.02990774 -0.0926761 0.046191305
0.009073232 -0.057616215 0.07963483 0.027208213 0.06111277 -0.03342352 0.10376659 0.009145624
-0.03054468 0.019836992 0.02241916 0.15221243 -0.012207985 0.053235397 -0.0033593979 -0.026722953
-0.02112559 0.014038146 0.026353037 -0.09765528 -0.024144577 0.052185986 -0.09138314 -0.024576183
-0.0713516 -0.0844046 -0.020629942 -0.06933024 -0.026460087 -0.065294184 0.01380165 0.03376073
-0.019157987 -0.029922115 0.012863291 -0.015391539 0.030394776 0.035366606 0.07815261 -0.07132304
-0.03257212 -0.015634181 0.024975244 0.10610651 -0.08572477 -0.048930433 -0.005419963 0.01817443
0.038181677 0.0052562887 0.05554455 -0.048902307 -0.040272545 0.07874216 0.0747742 0.10562976
0.19576645 -0.08025079 0.020666063 -0.008505562 -0.0821398 -0.023500448 0.0664696 0.03193359
0.035309184 0.10077082 -0.010303178 -0.0221668 0.07514999 0.049942408 -0.0013869528 -0.030941823
0.2313049 0.0126655465 0.08392375 -0.059182867 -0.015516646 -0.0023009607 -0.0100897085 0.020530524
0.086056404 0.030824604 0.06709429 0.029964356 0.07865296 -0.0043059075 -0.01714068 0.04553054
-0.02198189 0.06343505 0.039488584 -0.016536476 0.0620089 -0.017900683 -0.0073061087 0.0569215
0.042933304 0.009690866 0.0030631714 -0.05978596 8.00426e-05 -0.058728684 0.0055392236 -0.07547568
0.0082907695 -0.07849579 -0.06623838 0.03758499 -0.020867227 0.10185456 0.04451669 0.060112614
0.0033951753 -0.03744972 -0.0046528014 0.060900025 -0.06287515 0.073394515 0.0992344 0.044643074
-0.05145176 0.08593856 0.046771843 0.008972639 0.062760144 0.06639888 -0.035833187 -0.08910747
0.05844679 0.049567107 0.14988329 -0.016736608 -0.064730346 0.034506086 0.015952988 0.075970925
-0.14372373 0.038647305 0.07077246 -0.25898513 -0.07135843 0.04363891 -0.022787536 0.0074437554
-0.09169926 -0.023288177 -0.08860538 -0.07095142 -0.093413964 -0.014288603 0.071233556 -0.084755
-0.02569398 0.061574604 -0.08883737 0.081969656 -0.02699628 0.029142695 0.050632823 0.057122678
-0.04177094 0.01533887 0.08019657 0.009170863 -0.034984197 0.018319407 0.03652828 -0.076122575
-0.011152658 -0.1858917 0.038386744 0.05111113 0.021267673 -0.037908234 0.018836973 0.05839717
0.033209503 0.07694278 0.2145016 0.011826812 0.048748955 0.09543382 0.09608712 0.11864163
-0.19566645 0.094282635 -0.0030979982 -0.051433794 -0.07728202 -0.08119262 0.044076245 0.009458533
0.037313383 -0.03563179 0.096429005 0.0070807748 0.016436491 0.027380709 -0.008261465 0.023653675
-0.08800733 -0.05845518 -0.050967075 -0.038019624 -0.07655958 -0.15432832 -0.0121966805 0.021633001
0.032095026 -0.015077266 0.0193414 0.012227416 -0.016980577 -0.044013076 0.020574173 0.022389436
0.0462755 -0.06688608 -0.044558614 -0.05375342 0.046034124 0.034565758 0.015363295 0.09938791
-0.0029160697 0.039682575 0.08887709 -0.080284774 -0.0386359 -0.016777912 -0.03668821 0.057551008
-0.03039107 -0.053883743 -0.053753532 0.04637036 0.04355008 -0.17962475 0.033350375 0.07154848
0.031869125 0.0023451424 -0.007864243 -0.082158156 -0.07635415 -0.11827774 0.017986303 -0.050069515
00000000: bda8 66bd 1bac 583b 75f7 ba3b 5e58 89bd
00000010: fef5 b63c 1401 f53c f8cc bdbd 1833 3d3d
00000020: e5a7 143c fbfe 6bbd 9617 a33d c2e3 de3c
00000030: 6251 7a3d 1ae7 08bd 9483 d43d 87d7 153c
00000040: d638 fabc 3081 a23c 63a8 b73c 93dd 1b3e
00000050: 0004 48bc 5c0d 5a3d 5829 5cbb 18ea dabc
00000060: 930f adbc 4000 663c 53e2 d73c 7eff c7bd
00000070: d9ca c5bc f9c0 553d 1527 bbbd fe53 c9bc
00000080: ca20 92bd 52dc acbd 2000 a9bc 03fd 8dbd
00000090: d3c2 d8bc f5b8 85bd 5120 623c b148 0a3d
000000a0: 36f1 9cbc 391f f5bc 8ec0 523c cb2c 7cbc
000000b0: 77fe f83c 93dc 103d 7a0e a03d d011 92bd
000000c0: 586a 05bd 4113 80bc e298 cc3c 5f4e d93d
000000d0: 7890 afbd 476b 48bd f299 b1bb 8be2 943c
000000e0: 6464 1c3d f23c ac3b af82 633d c94d 48bd
000000f0: d3f4 24bd 9243 a13d 3723 993d 6a54 d83d
00000100: 0077 483e 875a a4bd e04b a93c ea5a 0bbc
00000110: e938 a8bd 0384 c0bc 3721 883d cccc 023d
00000120: 5da0 103d ef60 ce3d a9ce 28bc 2697 b5bc
00000130: 3de8 993d 6990 4c3d 6aca b5ba b579 fdbc
00000140: 31db 6c3e 2783 4f3c 37e0 ab3d bc69 72bd
00000150: 8839 7ebc b7cb 16bb 4e4f 25bc a12f a83c
00000160: 573e b03d e183 fc3c bb68 893d cf77 f53c
00000170: ce14 a13d 9218 8dbb 9d6a 8cbc 3b7e 3a3d
00000180: 5d13 b4bc 3cea 813d c8be 213d 8177 87bc
00000190: 0bfd 7d3d 74a4 92bc 1568 efbb 8526 693d
000001a0: d5da 2f3d 70c6 1e3c 7dbf 483b 1fe2 74bd
000001b0: 8bdc a738 7d8d 70bd 6082 b53b fe92 9abd
000001c0: 02d6 073c 67c2 a0bd fda7 87bd b8f2 193d
000001d0: bff1 aabc 2099 d03d 2257 363d a538 763d
000001e0: 9781 5e3b e164 19bd 8776 98bb 4e72 793d
000001f0: b0c4 80bd dd4f 963d 683b cb3d a8db 363d
00000200: 15bf 52bd 8e00 b03d d593 3f3d fa01 133c
00000210: 6488 803d 23fc 873d d2c5 12bd fa7d b6bd
00000220: e765 6f3d e106 4b3d 017b 193e 361b 89bc
00000230: 5891 84bd 4156 0d3d d7af 823c a596 9b3d
00000240: 502c 13be a34c 1e3d 27f1 903d b399 84be
00000250: 5e24 92bd b7be 323d edac babc bfea f33b
00000260: d2cc bbbd d9c6 bebc bd76 b5bd fa4e 91bd
00000270: d24f bfbd bf1a 6abc e6e2 913d 0894 adbd
00000280: 2e7c d2bc a735 7c3d 5ef0 b5bd b5df a73d
00000290: 4d27 ddbc a9bc ee3c 5d64 4f3d 78f9 693d
000002a0: 0118 2bbd e24f 7b3c 193e a43d 6341 163c
000002b0: 974b 0fbd 9512 963c ad9e 153d 27e6 9bbd
000002c0: a3b9 36bc 655a 3ebe 6b3b 1d3d e759 513d
000002d0: 8b39 ae3c aa45 1bbd ff4f 9a3c df31 6f3d
000002e0: b006 083d 2d94 9d3d 4fa6 5b3e 3fc5 413c
000002f0: fcac 473d ce72 c33d 53c9 c43d 62fa f23d
00000300: c95c 48be 4117 c13d c907 4bbb 3eac 52bd
00000310: 0946 9ebd 5148 a6bd 4b89 343d f6f7 1a3c
00000320: ebd5 183d a4f2 11bd 927c c53d d805 e83b
00000330: d2a5 863c 824d e03c 185b 07bc 5ac5 c13c
00000340: 303d b4bd b36e 6fbd dac2 50bd 77ba 1bbd
00000350: 45cb 9cbd 3e08 1ebe 96d4 47bc b137 b13c
00000360: 1376 033d a306 77bc db71 9e3c 8055 483c
00000370: da1a 8bbc 0e47 34bd 2b8b a83c 0d6a b73c
00000380: 618b 3d3d 92fb 88bd 1883 36bd 8c2c 5cbd
00000390: 478e 3c3d d394 0d3d 54b6 7b3c e38b cb3d
000003a0: 881b 3fbb 328a 223d 3105 b63d 586c a4bd
000003b0: ad40 1ebd d571 89bc 6046 16bd 9bba 6b3d
000003c0: b1f6 f8bc 33b5 5cbd aa2c 5cbd d9ee 3d3d
000003d0: 9261 323d 8def 37be 679a 083d 0288 923d
000003e0: 3389 023d f6b0 193b 07d9 00bc 8942 a8bd
000003f0: 915f 9cbd 9a3b f2bd 0358 933c b115 4dbd

layer2.bias f4 [64]
0.016157886 -0.034642845 -0.017754354 0.11935198 0.05753305 0.12042598 -0.07122298 0.04117709
0.109824784 -0.09732992 0.034010638 -0.033076614 0.072122194 0.1663305 0.04744427 -0.05729383
-0.050185382 0.037415724 -0.004548461 -0.011156922 0.0006896594 0.068616785 0.025226314 -0.015782252
-0.012005846 0.042091 -0.010106245 0.03554836 -0.08049134 0.048034847 -0.07016013 0.043122303
-0.057490177 -0.06292719 0.07372578 -0.03592298 0.0031928183 0.11417821 0.03859462 0.07614593
0.0015006326 -0.020728262 0.050051954 -0.009277367 0.006140564 0.07330872 0.05096912 -0.007754925
0.06652475 -0.02128074 0.012102389 -0.043060433 0.018856412 -0.041761763 0.02198159 -0.11818761
0.021604879 0.080723174 0.0341486 -0.064488426 -0.023845587 -0.074111216 0.104701 -0.08599375
00000000: 8b5d 843c a8e5 0dbd 9471 91bc d06e f43d
00000010: c7a7 6b3d e5a1 f63d 5bdd 91bd 4fa9 283d
00000020: d1eb e03d e954 c7bd bd4e 0b3d 587b 07bd
00000030: cdb4 933d 8b52 2a3e ec54 423d efac 6abd
00000040: 308f 4dbd 3b41 193d 420b 95bb 86cb 36bc
00000050: 42ca 343a f586 8c3d 6aa7 ce3c c849 81bc
00000060: 2bb4 44bc 9d67 2c3d aa94 25bc 289b 113d
00000070: a5d8 a4bd 30c0 443d 1db0 8fbd 03a1 303d
00000080: d27a 6bbd f8df 80bd 8bfd 963d fa23 13bd
00000090: 9a3e 513b 44d6 e93d 6415 1e3d 66f2 9b3d
000000a0: e0b0 c43a 51ce a9bc 4703 4d3d 1900 18bc
000000b0: c936 c93b e222 963d ffc4 503d 071d febb
000000c0: 213e 883d f254 aebc 1949 463c 2360 30bd
000000d0: c378 9a3c 620e 2bbd bc12 b43c 580c f2bd
000000e0: b7fc b03c 3152 a53d 67df 0b3d 8212 84bd
000000f0: d257 c3bc 9fc7 97bd 7a6d d63d 7e1d b0bd

layer3.weight f4 [10, 64]
0.11867793 0.023881584 0.0014391628 -0.10891087 0.032646086 -0.13449307 0.10046408 0.002875328
0.0493839 -0.16157714 0.042203113 0.0783335 -0.00587517 0.0565233 0.07521781 -0.06781666
0.093634956 -0.095590994 0.020492245 0.12561096 -0.02582714 -0.09605917 -0.11255636 -0.09573425
0.1594985 0.015637754 0.13621736 0.07292945 -0.094243556 -0.08125976 0.088212505 0.0769683
0.055715263 0.015160757 0.019330427 -0.109183446 -0.011561222 0.10642177 -0.048759956 0.062995695
0.11564486 0.06561914 0.10427589 -0.04443264 -0.11474976 0.07862571 -0.046830088 0.0016093701
0.04621231 -0.015042204 -0.09453119 -0.09024811 0.024550224 -0.11456463 0.006808373 -0.023811258
0.06787999 -0.0073573887 0.102238595 0.07203123 -0.07184727 0.062739074 0.056716196 -0.06241229
0.11581661 -0.016900372 -0.0013603235 -0.042232573 -0.021555912 0.08253322 0.042759933 0.081593946
-0.07888908 -0.091678366 -0.08885371 -0.056571353 0.12119119 -0.08721166 -0.1051318 0.05242298
-0.0153632555 -0.012585105 -0.09639483 0.14349017 0.0054584146 0.09742607 -0.06742944 0.009310116
0.072045535 -0.10084531 -0.003454686 0.09543897 0.059403002 -0.011110917 -0.12488884 0.040330626
0.116539344 0.028548736 -0.056474864 0.09752621 -0.08827778 -0.042609967 0.055301152 0.0076279785
0.036505274 -0.03913924 0.0756594 0.056183647 -0.10692105 0.12357112 0.11987309 0.055527955
-0.053200014 -0.079642765 0.09224301 -0.02469325 0.080985695 -0.07180318 -0.04890489 0.010013064
-0.11532799 -0.114099115 -0.0726625 0.10839723 -0.11385734 -0.0029016733 0.010066973 0.068800464
-0.10979582 -0.10735894 -0.10257617 0.06666991 0.09624747 0.02505262 -0.09653197 -0.0019637942
0.06042704 0.05851311 -0.09728472 0.082207315 -0.1174109 0.035182375 -0.050889134 0.11337009
0.012999566 -0.03007998 -0.0020740645 -0.07019445 0.0440588 0.032014456 0.1211236 -0.06603763
0.03671646 0.0622762 -0.08807539 -0.06016456 0.007509932 -0.07783578 -0.029752553 0.08664237
-0.118071094 -0.010156762 0.023371518 -0.111188084 -0.114334255 0.111108355 0.120709226 -0.06781796
-0.08406263 0.01945573 0.015494235 -0.066464365 -0.042476937 0.013221755 0.036876872 0.05002959
0.11621212 0.09787009 -0.04046482 -0.012403414 -0.03867361 -0.072298706 -0.01225256 -0.094343245
-0.05783393 0.08541362 0.03477265 0.08165878 0.03756158 0.04034157 0.016327307 -0.062860206
0.02364469 0.09442051 0.048248064 0.0047539817 -0.08393206 -0.005396037 -0.05807068 0.086303174
0.10148751 0.0060950043 -0.10308067 0.010618025 0.12373942 0.03864906 -0.032382883 -0.06737484
-0.08562955 0.11797852 -0.10127278 -0.097260535 -0.040710136 0.09083062 0.1038149 0.012474989
0.096774526 -0.035643913 0.07432176 0.06816716 0.031891555 -0.086297296 -0.12412624 -0.06303912
0.04089898 -0.039390344 0.117947176 -0.11270158 0.0029603648 0.045831855 -0.06384571 -0.12916522
-0.04451478 -0.0716573 -0.12236088 0.032287806 0.05514458 0.033073522 0.046293095 -0.088360235
-0.010352877 0.031181205 -0.021488829 0.05324936 -0.12813038 0.095815375 0.1107787 0.06948099
-0.014770598 -0.04339786 0.07339588 0.08202635 -0.10032678 0.06637885 0.0119446125 0.055352375
00000000: 6a0d f33d 50a3 c33c 4aa2 bc3a aa0c dfbd
00000010: e7b7 053d 8db8 09be 1dc0 cd3d 0070 3c3b
00000020: c646 4a3d 7a74 25be 2cdd 2c3d 506d a03d
00000030: 8084 c0bb fa84 673d cc0b 9a3d 76e3 8abd
00000040: afc3 bf3d 36c5 c3bd 5adf a73c 29a0 003e
00000050: 7093 d3bc acba c4bd f383 e6bd 5210 c4bd
00000060: 9353 233e bf1a 803c 907c 0b3e 095c 953d
00000070: c402 c1bd 846b a6bd c2a8 b43d 8ea1 9d3d
00000080: b035 643d d364 783c d85a 9e3c 929b dfbd
00000090: 486b 3dbc a8f3 d93d 85b8 47bd e303 813d
000000a0: 36d7 ec3d 5463 863d 998e d53d 00ff 35bd
000000b0: ec01 ebbd 8406 a13d e8d0 3fbd 80f1 d23a
000000c0: 1f49 3d3d 9473 76bc 9299 c1bd 00d4 b8bd
000000d0: 8d1d c93c dca0 eabd c618 df3b d40f c3bc
000000e0: aa04 8b3d 4016 f1bb 7862 d13d 1c85 933d
000000f0: a924 93bd 587d 803d 3e4f 683d 08a4 7fbd
00000100: 4231 ed3d a672 8abc e24c b2ba 10fc 2cbd
00000110: 0696 b0bc 2d07 a93d 0a25 2f3d ba1a a73d
00000120: 9990 a1bd dec1 bbbd eff8 b5bd 5db7 67bd
00000130: 1633 f83d 079c b2bd 574f d7bd 7bb9 563d
00000140: 2ab6 7bbc c231 4ebc a76a c5bd 16ef 123e
00000150: 80dc b23b 5287 c73d 7218 8abd 7589 183c
00000160: 9c8c 933d fc87 cebd 0368 62bb 8275 c33d
00000170: 9050 733d 900a 36bc b8c5 ffbd ba31 253d
00000180: 2eac ee3d 0adf e93c 3052 67bd d2bb c73d
00000190: fbca b4bd ca87 2ebd 7683 623d 1ff4 f93b
000001a0: 8e86 153d 7850 20bd 51f3 9a3d d320 663d
000001b0: 6cf9 dabd db12 fd3d 0680 f53d 4871 633d
000001c0: 42e8 59bd bf1b a3bd e7e9 bc3d 8049 cabc
000001d0: d4db a53d 8c0d 93bd 7e50 48bd d60d 243c
000001e0: 1531 ecbd ccac e9bd 14d0 94bd 5eff dd3d
000001f0: 092e e9bd 002a 3ebb f2ef 243c 42e7 8c3d
00000200: a2dc e0bd 01df dbbd 7413 d2bd 3c8a 883d
00000210: 651d c53d 273b cd3c 8eb2 c5bd 00b3 00bb
00000220: 5882 773d 71ab 6f3d 363d c7bd 4f5c a83d
00000230: 2075 f0bd 651b 103d 2071 50bd 942e e83d
00000240: 22fc 543c 4a6a f6bc 07ed 07bb 1cc2 8fbd
00000250: 0077 343d 9721 033d a60f f83d bd3e 87bd
00000260: 0064 163d 5415 7f3d df60 b4bd 1d6f 76bd
00000270: e015 f63b 5e68 9fbd a0bb f3bc 8e71 b13d
00000280: 42cf f1bd 8c68 26bc a075 bf3c 94b6 e3bd
00000290: 1428 eabd c78c e33d 6636 f73d 25e4 8abd
000002a0: 0729 acbd a061 9f3c 88db 7d3c 781e 88bd
000002b0: 4cfc 2dbd 0fa0 583c 340c 173d d4eb 4c3d
000002c0: 9f00 ee3d 1d70 c83d 70be 25bd b037 4bbc
000002d0: 3868 1ebd 5811 94bd f6be 48bc 0837 c1bd
000002e0: 45e3 6cbd 56ed ae3d c46d 0e3d b83c a73d
000002f0: 2cda 193d 343d 253d d8c0 853c dabc 80bd
00000300: 82b2 c13c 8a5f c13d c39f 453d 4ac7 9b3b
00000310: 92e4 abbd 3dd1 b0bb 85db 6dbd b8bf b03d
00000320: afd8 cf3d 9ab8 c73b f51b d3bd 3af7 2d3c
00000330: 186b fd3d 7a4e 1e3d eaa3 04bd d2fb 89bd
00000340: 8c5e afbd b99e f13d 1a68 cfbd 8830 c7bd
00000350: acbf 26bd 6705 ba3d e89c d43d e563 4c3c
00000360: b931 c63d 5aff 11bd 0236 983d 399b 8b3d
00000370: b8a0 023d a3bc b0bd e635 febd a71a 81bd
00000380: b085 273d c557 21bd 4a8e f13d 16d0 e6bd
00000390: ae02 423b 2fba 3b3d 8ac1 82bd e343 04be
000003a0: 2155 36bd 10c1 92bd 5798 fabd 3840 043d
000003b0: 48df 613d 1a78 073d d49d 3d3d 36f6 b4bd
000003c0: 1d9f 29bc ba6f ff3c 5709 b0bc 001c 5a3d
000003d0: 9c34 03be da3a c43d f1df e23d 0d4c 8e3d
000003e0: 6100 72bc f4c1 31bd 9450 963d 6efd a73d
000003f0: 2078 cdbd a2f1 873d 56b3 433c 2cb9 623d

layer3.bias f4 [10]
-0.046336196 0.048976567 -0.021596566 0.13250193 0.090201855 0.063574776 0.00911616 -0.049822483
0.13162678 0.10763134
00000000: 06cb 3dbd a79b 483d 48eb b0bc 96ae 073e
00000010: c0bb b83d 7e33 823d f25b 153c a912 4cbd
00000020: 2cc9 063e d26d dc3d
